…
Relying on driver to perform ptx compilation. This message will be only logged once.
Namespace(batch_size=128, debug=False, digit=5, epochs=120, lam_recon=0.512, lr=0.001, lr_decay=0.9, routings=3, save_dir='./result', shift_fraction=0.1, testing=False, weights=None)
____________________________________________________________________________________________________
Layer (type)                     Output Shape          Param #     Connected to                     
====================================================================================================
input_1 (InputLayer)             (None, 32, 32, 3)     0                                            
____________________________________________________________________________________________________
conv2d_1 (Conv2D)                (None, 32, 32, 64)    1728        input_1[0][0]                    
____________________________________________________________________________________________________
batch_normalization_1 (BatchNorm (None, 32, 32, 64)    256         conv2d_1[0][0]                   
____________________________________________________________________________________________________
activation_1 (Activation)        (None, 32, 32, 64)    0           batch_normalization_1[0][0]      
____________________________________________________________________________________________________
conv2d_3 (Conv2D)                (None, 32, 32, 64)    4096        activation_1[0][0]               
____________________________________________________________________________________________________
batch_normalization_3 (BatchNorm (None, 32, 32, 64)    256         conv2d_3[0][0]                   
____________________________________________________________________________________________________
activation_2 (Activation)        (None, 32, 32, 64)    0           batch_normalization_3[0][0]      
____________________________________________________________________________________________________
lambda_1 (Lambda)                (None, 32, 32, 32)    0           activation_2[0][0]               
____________________________________________________________________________________________________
lambda_2 (Lambda)                (None, 32, 32, 32)    0           activation_2[0][0]               
____________________________________________________________________________________________________
conv2d_4 (Conv2D)                (None, 32, 32, 32)    9216        lambda_1[0][0]                   
____________________________________________________________________________________________________
conv2d_5 (Conv2D)                (None, 32, 32, 32)    9216        lambda_2[0][0]                   
____________________________________________________________________________________________________
concatenate_1 (Concatenate)      (None, 32, 32, 64)    0           conv2d_4[0][0]                   
                                                                   conv2d_5[0][0]                   
____________________________________________________________________________________________________
batch_normalization_4 (BatchNorm (None, 32, 32, 64)    256         concatenate_1[0][0]              
____________________________________________________________________________________________________
activation_3 (Activation)        (None, 32, 32, 64)    0           batch_normalization_4[0][0]      
____________________________________________________________________________________________________
conv2d_2 (Conv2D)                (None, 32, 32, 128)   8192        activation_1[0][0]               
____________________________________________________________________________________________________
conv2d_6 (Conv2D)                (None, 32, 32, 128)   8192        activation_3[0][0]               
____________________________________________________________________________________________________
batch_normalization_2 (BatchNorm (None, 32, 32, 128)   512         conv2d_2[0][0]                   
____________________________________________________________________________________________________
batch_normalization_5 (BatchNorm (None, 32, 32, 128)   512         conv2d_6[0][0]                   
____________________________________________________________________________________________________
add_1 (Add)                      (None, 32, 32, 128)   0           batch_normalization_2[0][0]      
                                                                   batch_normalization_5[0][0]      
____________________________________________________________________________________________________
activation_4 (Activation)        (None, 32, 32, 128)   0           add_1[0][0]                      
____________________________________________________________________________________________________
batch_normalization_6 (BatchNorm (None, 32, 32, 128)   512         activation_4[0][0]               
____________________________________________________________________________________________________
separable_conv2d_1 (SeparableCon (None, 14, 14, 24)    6296        batch_normalization_6[0][0]      
____________________________________________________________________________________________________
activation_5 (Activation)        (None, 14, 14, 24)    0           separable_conv2d_1[0][0]         
____________________________________________________________________________________________________
conv2d_7 (Conv2D)                (None, 14, 14, 64)    13824       activation_5[0][0]               
____________________________________________________________________________________________________
batch_normalization_7 (BatchNorm (None, 14, 14, 64)    256         conv2d_7[0][0]                   
____________________________________________________________________________________________________
activation_6 (Activation)        (None, 14, 14, 64)    0           batch_normalization_7[0][0]      
____________________________________________________________________________________________________
conv2d_9 (Conv2D)                (None, 14, 14, 64)    4096        activation_6[0][0]               
____________________________________________________________________________________________________
batch_normalization_9 (BatchNorm (None, 14, 14, 64)    256         conv2d_9[0][0]                   
____________________________________________________________________________________________________
activation_7 (Activation)        (None, 14, 14, 64)    0           batch_normalization_9[0][0]      
____________________________________________________________________________________________________
lambda_4 (Lambda)                (None, 14, 14, 32)    0           activation_7[0][0]               
____________________________________________________________________________________________________
lambda_5 (Lambda)                (None, 14, 14, 32)    0           activation_7[0][0]               
____________________________________________________________________________________________________
conv2d_10 (Conv2D)               (None, 14, 14, 32)    9216        lambda_4[0][0]                   
____________________________________________________________________________________________________
conv2d_11 (Conv2D)               (None, 14, 14, 32)    9216        lambda_5[0][0]                   
____________________________________________________________________________________________________
concatenate_2 (Concatenate)      (None, 14, 14, 64)    0           conv2d_10[0][0]                  
                                                                   conv2d_11[0][0]                  
____________________________________________________________________________________________________
batch_normalization_10 (BatchNor (None, 14, 14, 64)    256         concatenate_2[0][0]              
____________________________________________________________________________________________________
activation_8 (Activation)        (None, 14, 14, 64)    0           batch_normalization_10[0][0]     
____________________________________________________________________________________________________
conv2d_8 (Conv2D)                (None, 14, 14, 128)   8192        activation_6[0][0]               
____________________________________________________________________________________________________
conv2d_12 (Conv2D)               (None, 14, 14, 128)   8192        activation_8[0][0]               
____________________________________________________________________________________________________
batch_normalization_8 (BatchNorm (None, 14, 14, 128)   512         conv2d_8[0][0]                   
____________________________________________________________________________________________________
batch_normalization_11 (BatchNor (None, 14, 14, 128)   512         conv2d_12[0][0]                  
____________________________________________________________________________________________________
add_2 (Add)                      (None, 14, 14, 128)   0           batch_normalization_8[0][0]      
                                                                   batch_normalization_11[0][0]     
____________________________________________________________________________________________________
activation_9 (Activation)        (None, 14, 14, 128)   0           add_2[0][0]                      
____________________________________________________________________________________________________
batch_normalization_12 (BatchNor (None, 14, 14, 128)   512         activation_9[0][0]               
____________________________________________________________________________________________________
separable_conv2d_2 (SeparableCon (None, 5, 5, 24)      6296        batch_normalization_12[0][0]     
____________________________________________________________________________________________________
activation_10 (Activation)       (None, 5, 5, 24)      0           separable_conv2d_2[0][0]         
____________________________________________________________________________________________________
conv2d_13 (Conv2D)               (None, 5, 5, 64)      13824       activation_10[0][0]              
____________________________________________________________________________________________________
batch_normalization_13 (BatchNor (None, 5, 5, 64)      256         conv2d_13[0][0]                  
____________________________________________________________________________________________________
activation_11 (Activation)       (None, 5, 5, 64)      0           batch_normalization_13[0][0]     
____________________________________________________________________________________________________
conv2d_15 (Conv2D)               (None, 5, 5, 64)      4096        activation_11[0][0]              
____________________________________________________________________________________________________
batch_normalization_15 (BatchNor (None, 5, 5, 64)      256         conv2d_15[0][0]                  
____________________________________________________________________________________________________
activation_12 (Activation)       (None, 5, 5, 64)      0           batch_normalization_15[0][0]     
____________________________________________________________________________________________________
lambda_7 (Lambda)                (None, 5, 5, 32)      0           activation_12[0][0]              
____________________________________________________________________________________________________
lambda_8 (Lambda)                (None, 5, 5, 32)      0           activation_12[0][0]              
____________________________________________________________________________________________________
conv2d_16 (Conv2D)               (None, 5, 5, 32)      9216        lambda_7[0][0]                   
____________________________________________________________________________________________________
conv2d_17 (Conv2D)               (None, 5, 5, 32)      9216        lambda_8[0][0]                   
____________________________________________________________________________________________________
concatenate_3 (Concatenate)      (None, 5, 5, 64)      0           conv2d_16[0][0]                  
                                                                   conv2d_17[0][0]                  
____________________________________________________________________________________________________
batch_normalization_16 (BatchNor (None, 5, 5, 64)      256         concatenate_3[0][0]              
____________________________________________________________________________________________________
activation_13 (Activation)       (None, 5, 5, 64)      0           batch_normalization_16[0][0]     
____________________________________________________________________________________________________
conv2d_14 (Conv2D)               (None, 5, 5, 128)     8192        activation_11[0][0]              
____________________________________________________________________________________________________
conv2d_18 (Conv2D)               (None, 5, 5, 128)     8192        activation_13[0][0]              
____________________________________________________________________________________________________
batch_normalization_14 (BatchNor (None, 5, 5, 128)     512         conv2d_14[0][0]                  
____________________________________________________________________________________________________
batch_normalization_17 (BatchNor (None, 5, 5, 128)     512         conv2d_18[0][0]                  
____________________________________________________________________________________________________
add_3 (Add)                      (None, 5, 5, 128)     0           batch_normalization_14[0][0]     
                                                                   batch_normalization_17[0][0]     
____________________________________________________________________________________________________
activation_14 (Activation)       (None, 5, 5, 128)     0           add_3[0][0]                      
____________________________________________________________________________________________________
batch_normalization_18 (BatchNor (None, 5, 5, 128)     512         activation_14[0][0]              
____________________________________________________________________________________________________
separable_conv2d_3 (SeparableCon (None, 2, 2, 24)      4248        batch_normalization_18[0][0]     
____________________________________________________________________________________________________
reshape_1 (Reshape)              (None, 2352, 2)       0           separable_conv2d_1[0][0]         
____________________________________________________________________________________________________
reshape_2 (Reshape)              (None, 300, 2)        0           separable_conv2d_2[0][0]         
____________________________________________________________________________________________________
reshape_3 (Reshape)              (None, 48, 2)         0           separable_conv2d_3[0][0]         
____________________________________________________________________________________________________
lambda_3 (Lambda)                (None, 2352, 2)       0           reshape_1[0][0]                  
____________________________________________________________________________________________________
lambda_6 (Lambda)                (None, 300, 2)        0           reshape_2[0][0]                  
____________________________________________________________________________________________________
lambda_9 (Lambda)                (None, 48, 2)         0           reshape_3[0][0]                  
____________________________________________________________________________________________________
merge_1 (Merge)                  (None, 2700, 2)       0           lambda_3[0][0]                   
                                                                   lambda_6[0][0]                   
                                                                   lambda_9[0][0]                   
____________________________________________________________________________________________________
digitcaps1 (CapsuleLayer)        (None, 10, 16)        752800      lambda_3[0][0]                   
____________________________________________________________________________________________________
digitcaps2 (CapsuleLayer)        (None, 10, 12)        72120       lambda_6[0][0]                   
____________________________________________________________________________________________________
digitcaps3 (CapsuleLayer)        (None, 10, 10)        9700        lambda_9[0][0]                   
____________________________________________________________________________________________________
digitcaps0 (CapsuleLayer)        (None, 10, 16)        864160      merge_1[0][0]                    
____________________________________________________________________________________________________
digitcaps (Merge)                (None, 10, 54)        0           digitcaps1[0][0]                 
                                                                   digitcaps2[0][0]                 
                                                                   digitcaps3[0][0]                 
                                                                   digitcaps0[0][0]                 
____________________________________________________________________________________________________
input_2 (InputLayer)             (None, 10)            0                                            
____________________________________________________________________________________________________
mask_1 (Mask)                    (None, 540)           0           digitcaps[0][0]                  
                                                                   input_2[0][0]                    
____________________________________________________________________________________________________
capsnet (Length)                 (None, 10)            0           digitcaps[0][0]                  
____________________________________________________________________________________________________
capsnet_0 (Length)               (None, 10)            0           digitcaps0[0][0]                 
____________________________________________________________________________________________________
capsnet_1 (Length)               (None, 10)            0           digitcaps1[0][0]                 
____________________________________________________________________________________________________
capsnet_2 (Length)               (None, 10)            0           digitcaps2[0][0]                 
____________________________________________________________________________________________________
capsnet_3 (Length)               (None, 10)            0           digitcaps3[0][0]                 
____________________________________________________________________________________________________
decoderFinal (Sequential)        (None, 32, 32, 3)     5815872     mask_1[0][0]                     
====================================================================================================
Total params: 7,684,516
Trainable params: 7,681,060
Non-trainable params: 3,456
____________________________________________________________________________________________________
____________________________________________________________________________________________________
Layer (type)                     Output Shape          Param #     Connected to                     
====================================================================================================
input_1 (InputLayer)             (None, 32, 32, 3)     0                                            
____________________________________________________________________________________________________
conv2d_1 (Conv2D)                (None, 32, 32, 64)    1728        input_1[0][0]                    
____________________________________________________________________________________________________
batch_normalization_1 (BatchNorm (None, 32, 32, 64)    256         conv2d_1[0][0]                   
____________________________________________________________________________________________________
activation_1 (Activation)        (None, 32, 32, 64)    0           batch_normalization_1[0][0]      
____________________________________________________________________________________________________
conv2d_3 (Conv2D)                (None, 32, 32, 64)    4096        activation_1[0][0]               
____________________________________________________________________________________________________
batch_normalization_3 (BatchNorm (None, 32, 32, 64)    256         conv2d_3[0][0]                   
____________________________________________________________________________________________________
activation_2 (Activation)        (None, 32, 32, 64)    0           batch_normalization_3[0][0]      
____________________________________________________________________________________________________
lambda_1 (Lambda)                (None, 32, 32, 32)    0           activation_2[0][0]               
____________________________________________________________________________________________________
lambda_2 (Lambda)                (None, 32, 32, 32)    0           activation_2[0][0]               
____________________________________________________________________________________________________
conv2d_4 (Conv2D)                (None, 32, 32, 32)    9216        lambda_1[0][0]                   
____________________________________________________________________________________________________
conv2d_5 (Conv2D)                (None, 32, 32, 32)    9216        lambda_2[0][0]                   
____________________________________________________________________________________________________
concatenate_1 (Concatenate)      (None, 32, 32, 64)    0           conv2d_4[0][0]                   
                                                                   conv2d_5[0][0]                   
____________________________________________________________________________________________________
batch_normalization_4 (BatchNorm (None, 32, 32, 64)    256         concatenate_1[0][0]              
____________________________________________________________________________________________________
activation_3 (Activation)        (None, 32, 32, 64)    0           batch_normalization_4[0][0]      
____________________________________________________________________________________________________
conv2d_2 (Conv2D)                (None, 32, 32, 128)   8192        activation_1[0][0]               
____________________________________________________________________________________________________
conv2d_6 (Conv2D)                (None, 32, 32, 128)   8192        activation_3[0][0]               
____________________________________________________________________________________________________
batch_normalization_2 (BatchNorm (None, 32, 32, 128)   512         conv2d_2[0][0]                   
____________________________________________________________________________________________________
batch_normalization_5 (BatchNorm (None, 32, 32, 128)   512         conv2d_6[0][0]                   
____________________________________________________________________________________________________
add_1 (Add)                      (None, 32, 32, 128)   0           batch_normalization_2[0][0]      
                                                                   batch_normalization_5[0][0]      
____________________________________________________________________________________________________
activation_4 (Activation)        (None, 32, 32, 128)   0           add_1[0][0]                      
____________________________________________________________________________________________________
batch_normalization_6 (BatchNorm (None, 32, 32, 128)   512         activation_4[0][0]               
____________________________________________________________________________________________________
separable_conv2d_1 (SeparableCon (None, 14, 14, 24)    6296        batch_normalization_6[0][0]      
____________________________________________________________________________________________________
activation_5 (Activation)        (None, 14, 14, 24)    0           separable_conv2d_1[0][0]         
____________________________________________________________________________________________________
conv2d_7 (Conv2D)                (None, 14, 14, 64)    13824       activation_5[0][0]               
____________________________________________________________________________________________________
batch_normalization_7 (BatchNorm (None, 14, 14, 64)    256         conv2d_7[0][0]                   
____________________________________________________________________________________________________
activation_6 (Activation)        (None, 14, 14, 64)    0           batch_normalization_7[0][0]      
____________________________________________________________________________________________________
conv2d_9 (Conv2D)                (None, 14, 14, 64)    4096        activation_6[0][0]               
____________________________________________________________________________________________________
batch_normalization_9 (BatchNorm (None, 14, 14, 64)    256         conv2d_9[0][0]                   
____________________________________________________________________________________________________
activation_7 (Activation)        (None, 14, 14, 64)    0           batch_normalization_9[0][0]      
____________________________________________________________________________________________________
lambda_4 (Lambda)                (None, 14, 14, 32)    0           activation_7[0][0]               
____________________________________________________________________________________________________
lambda_5 (Lambda)                (None, 14, 14, 32)    0           activation_7[0][0]               
____________________________________________________________________________________________________
conv2d_10 (Conv2D)               (None, 14, 14, 32)    9216        lambda_4[0][0]                   
____________________________________________________________________________________________________
conv2d_11 (Conv2D)               (None, 14, 14, 32)    9216        lambda_5[0][0]                   
____________________________________________________________________________________________________
concatenate_2 (Concatenate)      (None, 14, 14, 64)    0           conv2d_10[0][0]                  
                                                                   conv2d_11[0][0]                  
____________________________________________________________________________________________________
batch_normalization_10 (BatchNor (None, 14, 14, 64)    256         concatenate_2[0][0]              
____________________________________________________________________________________________________
activation_8 (Activation)        (None, 14, 14, 64)    0           batch_normalization_10[0][0]     
____________________________________________________________________________________________________
conv2d_8 (Conv2D)                (None, 14, 14, 128)   8192        activation_6[0][0]               
____________________________________________________________________________________________________
conv2d_12 (Conv2D)               (None, 14, 14, 128)   8192        activation_8[0][0]               
____________________________________________________________________________________________________
batch_normalization_8 (BatchNorm (None, 14, 14, 128)   512         conv2d_8[0][0]                   
____________________________________________________________________________________________________
batch_normalization_11 (BatchNor (None, 14, 14, 128)   512         conv2d_12[0][0]                  
____________________________________________________________________________________________________
add_2 (Add)                      (None, 14, 14, 128)   0           batch_normalization_8[0][0]      
                                                                   batch_normalization_11[0][0]     
____________________________________________________________________________________________________
activation_9 (Activation)        (None, 14, 14, 128)   0           add_2[0][0]                      
____________________________________________________________________________________________________
batch_normalization_12 (BatchNor (None, 14, 14, 128)   512         activation_9[0][0]               
____________________________________________________________________________________________________
separable_conv2d_2 (SeparableCon (None, 5, 5, 24)      6296        batch_normalization_12[0][0]     
____________________________________________________________________________________________________
activation_10 (Activation)       (None, 5, 5, 24)      0           separable_conv2d_2[0][0]         
____________________________________________________________________________________________________
conv2d_13 (Conv2D)               (None, 5, 5, 64)      13824       activation_10[0][0]              
____________________________________________________________________________________________________
batch_normalization_13 (BatchNor (None, 5, 5, 64)      256         conv2d_13[0][0]                  
____________________________________________________________________________________________________
activation_11 (Activation)       (None, 5, 5, 64)      0           batch_normalization_13[0][0]     
____________________________________________________________________________________________________
conv2d_15 (Conv2D)               (None, 5, 5, 64)      4096        activation_11[0][0]              
____________________________________________________________________________________________________
batch_normalization_15 (BatchNor (None, 5, 5, 64)      256         conv2d_15[0][0]                  
____________________________________________________________________________________________________
activation_12 (Activation)       (None, 5, 5, 64)      0           batch_normalization_15[0][0]     
____________________________________________________________________________________________________
lambda_7 (Lambda)                (None, 5, 5, 32)      0           activation_12[0][0]              
____________________________________________________________________________________________________
lambda_8 (Lambda)                (None, 5, 5, 32)      0           activation_12[0][0]              
____________________________________________________________________________________________________
conv2d_16 (Conv2D)               (None, 5, 5, 32)      9216        lambda_7[0][0]                   
____________________________________________________________________________________________________
conv2d_17 (Conv2D)               (None, 5, 5, 32)      9216        lambda_8[0][0]                   
____________________________________________________________________________________________________
concatenate_3 (Concatenate)      (None, 5, 5, 64)      0           conv2d_16[0][0]                  
                                                                   conv2d_17[0][0]                  
____________________________________________________________________________________________________
batch_normalization_16 (BatchNor (None, 5, 5, 64)      256         concatenate_3[0][0]              
____________________________________________________________________________________________________
activation_13 (Activation)       (None, 5, 5, 64)      0           batch_normalization_16[0][0]     
____________________________________________________________________________________________________
conv2d_14 (Conv2D)               (None, 5, 5, 128)     8192        activation_11[0][0]              
____________________________________________________________________________________________________
conv2d_18 (Conv2D)               (None, 5, 5, 128)     8192        activation_13[0][0]              
____________________________________________________________________________________________________
batch_normalization_14 (BatchNor (None, 5, 5, 128)     512         conv2d_14[0][0]                  
____________________________________________________________________________________________________
batch_normalization_17 (BatchNor (None, 5, 5, 128)     512         conv2d_18[0][0]                  
____________________________________________________________________________________________________
add_3 (Add)                      (None, 5, 5, 128)     0           batch_normalization_14[0][0]     
                                                                   batch_normalization_17[0][0]     
____________________________________________________________________________________________________
activation_14 (Activation)       (None, 5, 5, 128)     0           add_3[0][0]                      
____________________________________________________________________________________________________
batch_normalization_18 (BatchNor (None, 5, 5, 128)     512         activation_14[0][0]              
____________________________________________________________________________________________________
separable_conv2d_3 (SeparableCon (None, 2, 2, 24)      4248        batch_normalization_18[0][0]     
____________________________________________________________________________________________________
reshape_1 (Reshape)              (None, 2352, 2)       0           separable_conv2d_1[0][0]         
____________________________________________________________________________________________________
reshape_2 (Reshape)              (None, 300, 2)        0           separable_conv2d_2[0][0]         
____________________________________________________________________________________________________
reshape_3 (Reshape)              (None, 48, 2)         0           separable_conv2d_3[0][0]         
____________________________________________________________________________________________________
lambda_3 (Lambda)                (None, 2352, 2)       0           reshape_1[0][0]                  
____________________________________________________________________________________________________
lambda_6 (Lambda)                (None, 300, 2)        0           reshape_2[0][0]                  
____________________________________________________________________________________________________
lambda_9 (Lambda)                (None, 48, 2)         0           reshape_3[0][0]                  
____________________________________________________________________________________________________
merge_1 (Merge)                  (None, 2700, 2)       0           lambda_3[0][0]                   
                                                                   lambda_6[0][0]                   
                                                                   lambda_9[0][0]                   
____________________________________________________________________________________________________
digitcaps1 (CapsuleLayer)        (None, 10, 16)        752800      lambda_3[0][0]                   
____________________________________________________________________________________________________
digitcaps2 (CapsuleLayer)        (None, 10, 12)        72120       lambda_6[0][0]                   
____________________________________________________________________________________________________
digitcaps3 (CapsuleLayer)        (None, 10, 10)        9700        lambda_9[0][0]                   
____________________________________________________________________________________________________
digitcaps0 (CapsuleLayer)        (None, 10, 16)        864160      merge_1[0][0]                    
____________________________________________________________________________________________________
digitcaps (Merge)                (None, 10, 54)        0           digitcaps1[0][0]                 
                                                                   digitcaps2[0][0]                 
                                                                   digitcaps3[0][0]                 
                                                                   digitcaps0[0][0]                 
____________________________________________________________________________________________________
capsnet (Length)                 (None, 10)            0           digitcaps[0][0]                  
====================================================================================================
Total params: 1,868,644
Trainable params: 1,865,188
Non-trainable params: 3,456
____________________________________________________________________________________________________
Epoch 1/120
  1/390 [..............................] - ETA: 3287s - loss
…
